…
// single node in last layer, sigmoid, binary crossentropy loss

2018-04-18 16:30:04.762312: I tensorflow/core/platform/cpu_feature_guard.cc:140] Your CPU supports instructions that this TensorFlow binary was not compiled to use: SSE4.1 SSE4.2 AVX AVX2 FMA
Loading .npy files.
Selecting a random sample to train.
========================
=====Training model=====
========================
Compiling...
_________________________________________________________________
Layer (type)                 Output Shape              Param #
=================================================================
conv2d_1 (Conv2D)            (None, 30, 30, 128)       3584
_________________________________________________________________
conv2d_2 (Conv2D)            (None, 30, 30, 64)        131136
_________________________________________________________________
dropout_1 (Dropout)          (None, 30, 30, 64)        0
_________________________________________________________________
conv2d_3 (Conv2D)            (None, 30, 30, 64)        102464
_________________________________________________________________
dropout_2 (Dropout)          (None, 30, 30, 64)        0
_________________________________________________________________
conv2d_4 (Conv2D)            (None, 30, 30, 32)        8224
_________________________________________________________________
dropout_3 (Dropout)          (None, 30, 30, 32)        0
_________________________________________________________________
flatten_1 (Flatten)          (None, 28800)             0
_________________________________________________________________
dense_1 (Dense)              (None, 32)                921632
_________________________________________________________________
dropout_4 (Dropout)          (None, 32)                0
_________________________________________________________________
dense_2 (Dense)              (None, 1)                 33
=================================================================
Total params: 1,167,073
Trainable params: 1,167,073
Non-trainable params: 0
_________________________________________________________________
Not using data augmentation.
Train on 12511 samples, validate on 5363 samples
Epoch 1/10
12511/12511 [==============================] - 246s 20ms/step - loss: 1.0541 - acc: 0.4984 - val_loss: 1.1975 - val_acc: 0.2592
…
