…
+GXX=/global/homes/l/liuto/.conda/envs/convNet/bin/x86_64-conda_cos6-linux-gnu-g++
2018-04-21 21:13:17.806151: I tensorflow/core/platform/cpu_feature_guard.cc:140] Your CPU supports instructions that this TensorFlow binary was not compiled to use: SSE4.1 SSE4.2 AVX AVX2 FMA
Loading .npy files.
Selecting a random sample to train.
========================
=====Training model=====
========================
Compiling...
_________________________________________________________________
Layer (type)                 Output Shape              Param #   
=================================================================
conv2d_1 (Conv2D)            (None, 30, 30, 128)       4736      
_________________________________________________________________
conv2d_2 (Conv2D)            (None, 30, 30, 64)        131136    
_________________________________________________________________
dropout_1 (Dropout)          (None, 30, 30, 64)        0         
_________________________________________________________________
conv2d_3 (Conv2D)            (None, 30, 30, 32)        8224      
_________________________________________________________________
dropout_2 (Dropout)          (None, 30, 30, 32)        0         
_________________________________________________________________
conv2d_4 (Conv2D)            (None, 30, 30, 64)        32832     
_________________________________________________________________
dropout_3 (Dropout)          (None, 30, 30, 64)        0         
_________________________________________________________________
conv2d_5 (Conv2D)            (None, 30, 30, 128)       295040    
_________________________________________________________________
dropout_4 (Dropout)          (None, 30, 30, 128)       0         
_________________________________________________________________
flatten_1 (Flatten)          (None, 115200)            0         
_________________________________________________________________
dense_1 (Dense)              (None, 32)                3686432   
_________________________________________________________________
dropout_5 (Dropout)          (None, 32)                0         
_________________________________________________________________
dense_2 (Dense)              (None, 1)                 33        
=================================================================
Total params: 4,158,433
Trainable params: 4,158,433
Non-trainable params: 0
_________________________________________________________________
Not using data augmentation.
Train on 12511 samples, validate on 5363 samples
Epoch 1/20

   48/12511 [..............................] - ETA: 8:43 - loss: 1.0258 - acc: 0.2708
   96/12511 [..............................] - ETA: 6:26 - loss: 1.0106 - acc: 0.4375
…
