…
// single node in last layer, sigmoid, binary crossentropy loss

2018-04-18 14:52:59.605556: I tensorflow/core/platform/cpu_feature_guard.cc:140] Your CPU supports instructions that this TensorFlow binary was not compiled to use: SSE4.1 SSE4.2 AVX AVX2 FMA
Loading .npy files.
Selecting a random sample to train.
========================
=====Training model=====
========================
Compiling...
_________________________________________________________________
Layer (type)                 Output Shape              Param #   
=================================================================
conv2d_1 (Conv2D)            (None, 51, 51, 128)       9728      
_________________________________________________________________
conv2d_2 (Conv2D)            (None, 51, 51, 64)        131136    
_________________________________________________________________
dropout_1 (Dropout)          (None, 51, 51, 64)        0         
_________________________________________________________________
conv2d_3 (Conv2D)            (None, 51, 51, 64)        36928     
_________________________________________________________________
dropout_2 (Dropout)          (None, 51, 51, 64)        0         
_________________________________________________________________
conv2d_4 (Conv2D)            (None, 51, 51, 32)        8224      
_________________________________________________________________
dropout_3 (Dropout)          (None, 51, 51, 32)        0         
_________________________________________________________________
flatten_1 (Flatten)          (None, 83232)             0         
_________________________________________________________________
dense_1 (Dense)              (None, 32)                2663456   
_________________________________________________________________
dropout_4 (Dropout)          (None, 32)                0         
_________________________________________________________________
dense_2 (Dense)              (None, 1)                 33        
=================================================================
Total params: 2,849,505
Trainable params: 2,849,505
Non-trainable params: 0
_________________________________________________________________
Not using data augmentation.
Train on 12511 samples, validate on 5363 samples
Epoch 1/10 12511/12511 [==============================] - 358s 29ms/step - loss: 1.0446 - acc: 0.3165 - val_loss: 3.7017 - val_acc: 0.2376
…
